11bicycle_traffic_management_system_512.tflite (tflite, 920900 bytes, 13 tensors)

sequential_5/conv2d_23/BiasAdd/ReadVariableOp f4 [128]
0	0xbce91adb	-0.028455188
1	0xbc7382dd	-0.014862743
2	0xbd7bf891	-0.06151635
3	0xbc6e7fcc	-0.014556836
4	0xbc8577ef	-0.01629254
5	0xbc366c30	-0.011134192
6	0xbc917e22	-0.01776034
7	0xbc8e0adb	-0.01733916
8	0xbca7cea1	-0.02048427
9	0xbcb2325a	-0.021752525
10	0xbcc2669a	-0.023730565
11	0xbd8492a5	-0.06473283
12	0xbce2b4e5	-0.027674148
13	0xbcd9b509	-0.026575582
14	0xbd0949e0	-0.03351772
15	0xbc6377e4	-0.013883565
16	0xbc67078d	-0.014100921
17	0xbc50e688	-0.012750275
18	0xbcfac996	-0.030613702
19	0xbc373935	-0.011183073
20	0xbc885799	-0.016643332
21	0xbc9549c5	-0.018223653
22	0xbd075609	-0.033041034
23	0xbc91d48b	-0.017801544
24	0xbce79d02	-0.02827311
25	0xbbf6c8e2	-0.0075312713
26	0xbcd7f8f0	-0.02636382
27	0xbd5b253d	-0.05350231
28	0xbaf5bc8a	-0.0018748206
29	0xbc50a802	-0.012735369
30	0xbc8ea997	-0.017414851
31	0xbc49c785	-0.012315636
32	0xbc8d2e28	-0.017233923
33	0xbd587ac9	-0.052851472
34	0xbbdc4bf2	-0.0067229206
35	0xbceca70b	-0.028888246
36	0x3bb59341	0.0055412357
37	0xbbec9a0e	-0.007220513
38	0xbd38fa25	-0.04516043
39	0xbd3521a1	-0.044221524
40	0xbca4bb12	-0.020108733
41	0xbcbb9dad	-0.022902334
42	0xbc868439	-0.01642047
43	0xbc3eee6e	-0.011653526
44	0xbd0ca51b	-0.034337144
45	0xbd2f20db	-0.042755943
46	0xbc59489c	-0.01326194
47	0xbc2137a4	-0.009839926
48	0xbb8cda40	-0.0042984784
49	0xbc1343bd	-0.008988318
50	0xbc0adf71	-0.008476124
51	0xbc7fb3e0	-0.01560685
52	0xbca1b214	-0.019738235
53	0xbd04724b	-0.03233556
54	0xbc14a5f9	-0.009072774
55	0xbc924e91	-0.017859729
56	0xbccdb4cf	-0.02511063
57	0xbca743fe	-0.020418163
58	0xbcfb4446	-0.030672204
59	0xbd2c7225	-0.042101044
60	0xbc491025	-0.012271916
61	0xbc9d3840	-0.019191861
62	0xbd033b2b	-0.03203885
63	0xbcea78ac	-0.028621994
64	0xbcc93548	-0.02456154
65	0xbd138832	-0.036018558
66	0xbd072390	-0.0329929
67	0xbd0783cc	-0.033084676
68	0xbc6c7e63	-0.01443443
69	0xbb59ae88	-0.00332156
70	0xbc338f6a	-0.010959486
71	0xbbb8c156	-0.005638282
72	0x3cd0aa5f	0.025471864
73	0xbd21fe42	-0.03954912
74	0xbcf05cbc	-0.029341094
75	0xbd18ab0d	-0.0372725
76	0xbc6a9600	-0.014317989
77	0xbccbaa11	-0.024861367
78	0xbe1deaa2	-0.15421537
79	0xbce821e1	-0.028336467
80	0xbd6b033f	-0.057376143
81	0xbcaca34f	-0.021073965
82	0xbd3e9749	-0.046530996
83	0xbcd36ad6	-0.02580778
84	0xbd3c6376	-0.04599329
85	0xbc757289	-0.014980921
86	0xbd9d87f5	-0.07691947
87	0xbcc5b814	-0.024135627
88	0xbcf610be	-0.03003728
89	0xbca57463	-0.0201971
90	0xbd05ca2a	-0.0326635
91	0xbcff4605	-0.031161318
92	0xbbcf1360	-0.0063194484
93	0xbd14ea94	-0.036356524
94	0xbc0d9d02	-0.008643391
95	0xbca9b79a	-0.02071743
96	0xbd0a18cc	-0.033715054
97	0xbcbf6765	-0.023364732
98	0xbc9a625b	-0.018845728
99	0xbc22f1de	-0.009945361
100	0xbc55ce8e	-0.013049735
101	0xbcf9e25c	-0.030503444
102	0x3a997a85	0.0011709487
103	0xbd57da6f	-0.05269855
104	0xbd23b2bb	-0.039965373
105	0xbd74abf1	-0.05973429
106	0xbb5d07e8	-0.0033726636
107	0xbc838220	-0.01605326
108	0xbd52ee5b	-0.051496845
109	0xbc757572	-0.014981614
110	0xbc8ea4a8	-0.017412499
111	0xbc837b0e	-0.016049888
112	0xbd31ae08	-0.04337886
113	0xbdb58c10	-0.088646054
114	0xbd20f1fe	-0.03929328
115	0xbcc021f5	-0.023453692
116	0xbc637a54	-0.013884146
117	0xbc9af324	-0.018914767
118	0xbdb7b974	-0.08970919
119	0xbd10dde5	-0.035367865
120	0xbcaa4d3a	-0.020788778
121	0x3c063421	0.008191139
122	0xbc2b961a	-0.010472799
123	0xbc974bfc	-0.01846885
124	0xbd2d8ef5	-0.042372663
125	0xbc819afc	-0.015820973
126	0xbcb06aa7	-0.02153523
127	0xbc9343fa	-0.01797675

sequential_5/conv2d_22/BiasAdd/ReadVariableOp f4 [64]
0	0xbd5425aa	-0.05179373
1	0xbd2170f1	-0.03941435
2	0xbda595d2	-0.080852166
3	0xbd2a389d	-0.041557897
4	0xbda48c08	-0.08034521
5	0xbca6e5d4	-0.020373262
6	0xbcc0d529	-0.023539143
7	0xbc629f0a	-0.013831863
8	0xbda2155b	-0.079142295
9	0xbc97d15d	-0.01853245
10	0xbd7b52c7	-0.06135824
11	0xbd869aa5	-0.06572465
12	0xbd44e71e	-0.048071973
13	0xbc86abcd	-0.016439343
14	0xbd2fae57	-0.042890873
15	0xbd04e8b6	-0.032448493
16	0xbcd59b4c	-0.026075028
17	0xbd0a208c	-0.033722445
18	0xbd927dc5	-0.07152895
19	0x3c0ce41c	0.008599307
20	0xbcc11302	-0.023568634
21	0xbd5ff5ad	-0.054677654
22	0xbd4d6d88	-0.050153285
23	0xbd8c42a7	-0.068486504
24	0xbcecb1fa	-0.02889346
25	0xbd13e13f	-0.036103483
26	0xbd1ad027	-0.037796166
27	0xbd951a27	-0.07280379
28	0xbcc6b46a	-0.02425595
29	0xbd54fe0b	-0.052000087
30	0xbd751d67	-0.059842493
31	0xbdb3b031	-0.0877384
32	0xbd9000c9	-0.070314
33	0xbd68dc2e	-0.056850605
34	0xbba1818a	-0.0049287723
35	0xbd08ebbc	-0.03342794
36	0xbd14bc04	-0.03631212
37	0xbdee31b3	-0.11630573
38	0x3aabdb8e	0.0013111697
39	0xbd31a1fc	-0.04336737
40	0xbc26bd3d	-0.010176954
41	0xbd0039a9	-0.03130499
42	0xbd6859c0	-0.056726217
43	0xbd7434ae	-0.05962055
44	0xbd620012	-0.05517585
45	0x3a3b026b	0.0007133844
46	0xbd26bb0e	-0.040705733
47	0xbc762d8b	-0.015025507
48	0xbd747eb9	-0.059691165
49	0xbd61b76e	-0.055106573
50	0xbcdb76d7	-0.026790066
51	0xbc996b97	-0.01872806
52	0xbd9d055c	-0.07667038
53	0xbd3245b5	-0.04352351
54	0xbd38b68e	-0.045095973
55	0xbde34500	-0.11097145
56	0xbc3b1793	-0.011419195
57	0xbd4a0286	-0.049318813
58	0xbd4e800a	-0.050415076
59	0xbc81d748	-0.015849724
60	0xbdbcdfae	-0.09222351
61	0xbd0f5b87	-0.034999397
62	0xbc60ac4d	-0.013712955
63	0xbd8673d7	-0.065650634

sequential_5/conv2d_21/BiasAdd/ReadVariableOp f4 [32]
0	0xba0c3fd9	-0.000535009
1	0x3cd8f04b	0.026481768
2	0x3da15feb	0.07879623
3	0xbc8f93b4	-0.017526485
4	0xbc827bb3	-0.015928125
5	0x3d950a88	0.07277399
6	0x3d5c9139	0.053849433
7	0xbcb1ef77	-0.021720631
8	0x3db0fe76	0.086422846
9	0x3d9058ff	0.07048225
10	0xbae8aa1b	-0.0017750891
11	0xbc873350	-0.01650396
12	0x3d8bdf36	0.068296835
13	0x3c5dfcfa	0.013549084
14	0xbbfdf009	-0.0077495617
15	0xbc4604fe	-0.012086151
16	0x3c263dd1	0.010146574
17	0x3d6b90f4	0.057511285
18	0x3d1f495d	0.038888324
19	0x3d6c6be4	0.05772008
20	0x3d4b60d8	0.049652904
21	0x3d2281e9	0.039674673
22	0xbc94180b	-0.01807787
23	0xba2e8d52	-0.00066586316
24	0x3ddd060e	0.107921705
25	0xbc3c2852	-0.0114842225
26	0xbc594502	-0.013261082
27	0x3da8a349	0.08234269
28	0x3d8c597c	0.06853005
29	0x3c6c1a3b	0.014410551
30	0x3d48597e	0.04891347
31	0x3d438536	0.04773446

sequential_5/conv2d_20/BiasAdd/ReadVariableOp f4 [16]
0	0xbc344a57	-0.011004052
1	0x3da9be9a	0.082883075
2	0xbd0473e6	-0.032337092
3	0x3d1fb2d1	0.038988892
4	0x3d0ce815	0.03440102
5	0xbc95c89c	-0.018284135
6	0x3cafc830	0.021457762
7	0x3c5331bf	0.012890278
8	0x3ce4698e	0.027882364
9	0xbc4f7107	-0.012661225
10	0xbc20175c	-0.009771194
11	0xbd6f2f32	-0.05839462
12	0x3d0cfcb4	0.034420684
13	0x3cb2e783	0.021838909
14	0x3d426fab	0.047469776
15	0xbcd61d2a	-0.026136953

sequential_5/batch_normalization_10/FusedBatchNormV3 f4 [32]
0	0x405fda11	3.4976847
1	0x419c03a6	19.501781
2	0x4134aa55	11.291585
3	0x41f791fe	30.946285
4	0x41fdcaae	31.723965
5	0x40ac807c	5.390684
6	0x41604d27	14.018836
7	0x41f3542c	30.4161
8	0x410010d4	8.004108
9	0x40770e5d	3.8602517
10	0x41dd823a	27.688587
11	0x41f7bda2	30.967594
12	0x407b97f4	3.9311495
13	0x41e9d26b	29.227743
14	0x41f3c6a7	30.471998
15	0x41f47c15	30.560587
16	0x41efc0ca	29.969135
17	0x40f78853	7.735391
18	0x41831615	16.385782
19	0x409a4fb6	4.8222303
20	0x40f5ba29	7.6789746
21	0x40e3faad	7.12435
22	0x41fa28b5	31.269876
23	0x41cb084d	25.379053
24	0x404f38e0	3.2378464
25	0x41f9c53d	31.221308
26	0x41f98bf4	31.193336
27	0x40c68e64	6.2048817
28	0x4040dac9	3.0133536
29	0x40f586c7	7.6727023
30	0x408bd010	4.3691483
31	0x40b78b5c	5.7357616

sequential_5/batch_normalization_10/FusedBatchNormV31 f4 [32]
0	0xbfb61743	-1.4225849
1	0xbf23c170	-0.6396704
2	0xbfe266d3	-1.768763
3	0x3baba6ab	0.005238374
4	0x3c9f6aae	0.019460049
5	0xc029da85	-2.6539624
6	0xbff30c2d	-1.8988091
7	0xbd3eb27f	-0.046556946
8	0xc028a9b7	-2.6353586
9	0xc0184c94	-2.379674
10	0xbd3e5835	-0.04647084
11	0xbda9097c	-0.08253762
12	0xc0287031	-2.6318476
13	0xbd2ea775	-0.04264017
14	0xbd406ce8	-0.04697886
15	0x3c882b49	0.016622202
16	0xbe0ca1ba	-0.13733569
17	0xc0112fc9	-2.2685416
18	0xbe7a0e1c	-0.24419445
19	0xc01bc954	-2.434163
20	0xbfda60d4	-1.70608
21	0xc004fff3	-2.078122
22	0x3e21594e	0.15756723
23	0x3c144032	0.0090485085
24	0xc02d042f	-2.7033803
25	0xbb91f2f0	-0.0044540092
26	0xbca9daaf	-0.02073416
27	0xc01e25df	-2.4710615
28	0xc011b465	-2.2766354
29	0xc02207e7	-2.5317323
30	0xc02cf3be	-2.7023768
31	0xbffd3b69	-1.9783756

sequential_5/batch_normalization_11/FusedBatchNormV3 f4 [128]
0	0x3f273a29	0.6532312
1	0x3ec979e5	0.3935081
2	0x41edbce6	29.717236
3	0x41f9b5ab	31.213705
4	0x41fb1455	31.384928
5	0x41f7c19d	30.969538
6	0x41ab72b6	21.431011
7	0x3e852517	0.2600486
8	0x41fa575f	31.292662
9	0x41f73b98	30.904099
10	0x41ec123d	29.508905
11	0x3e066d9d	0.13127752
12	0x41f7b71e	30.964413
13	0x41f29f16	30.327679
14	0x41ed9002	29.695316
15	0x41f9939c	31.197075
16	0x41f8089d	31.004206
17	0x41fb52cb	31.415426
18	0x3d3f35e6	0.04668226
19	0x41f99341	31.196901
20	0x41f94ed5	31.163492
21	0x41f03275	30.024637
22	0x3fe31b8d	1.7742783
23	0x41f7dd20	30.982971
24	0x41e72121	28.891176
25	0x3fd8e29f	1.6944159
26	0x3e595a1b	0.21225779
27	0x41b61f2d	22.765223
28	0x3e284f97	0.16436611
29	0x41f9074a	31.12856
30	0x41f7df7f	30.984129
31	0x41fa448e	31.283474
32	0x41faa637	31.33116
33	0x41de06bf	27.753294
34	0x41fb9cd9	31.451586
35	0x41f1957e	30.197994
36	0x407ed016	3.9814506
37	0x41d50710	26.628448
38	0x4042c81c	3.0434637
39	0x3fbd235e	1.4776418
40	0x41f26814	30.30082
41	0x3ed1d879	0.40985468
42	0x41f73be5	30.904245
43	0x41f7e82d	30.988367
44	0x41f5f390	30.743927
45	0x40599d8b	3.4002407
46	0x41f9c612	31.221714
47	0x41f93841	31.152468
48	0x3d1d2987	0.03836968
49	0x3ff5eee5	1.921353
50	0x41fb9bb1	31.451021
51	0x41f9817a	31.188221
52	0x3f18f12c	0.59743
53	0x41f5fcd8	30.748459
54	0x41f5cf1f	30.726133
55	0x41f9bba0	31.216614
56	0x41ce2bbc	25.771355
57	0x41eff58d	29.994898
58	0x3f10e6a8	0.56601954
59	0x3ddf600a	0.1090699
60	0x3d92657b	0.07148262
61	0x3fe9be44	1.826119
62	0x41f6be29	30.842852
63	0x41f10f86	30.13258
64	0x41f8d60c	31.104515
65	0x403c2a11	2.9400675
66	0x3e6b27a0	0.22964334
67	0x3e404816	0.18777499
68	0x41fb9848	31.449356
69	0x41f9a9c3	31.207891
70	0x41fb1cd9	31.389086
71	0x41f2a3ff	30.330076
72	0x3da84ed1	0.08218158
73	0x41e276e3	28.30805
74	0x3f388e9b	0.720926
75	0x3f395575	0.7239602
76	0x41fc0d94	31.50663
77	0x41f058b9	30.043322
78	0x41a2ad03	20.334478
79	0x40ca0024	6.312517
80	0x3e757218	0.23969305
81	0x41f74f7b	30.913809
82	0x41ef120a	29.883808
83	0x40817057	4.0449634
84	0x41e43878	28.527573
85	0x41fb1ce1	31.389101
86	0x41d91377	27.134504
87	0x41f7202b	30.890707
88	0x3f4ccfdc	0.8000467
89	0x3f968546	1.1759422
90	0x3d94d908	0.07267958
91	0x41dc11b5	27.508646
92	0x41fb1624	31.38581
93	0x41f233cc	30.275291
94	0x41f7b624	30.963936
95	0x41f78fd9	30.945238
96	0x4054923e	3.321426
97	0x41f1174c	30.136375
98	0x41e0f4f8	28.119614
99	0x41ebd4a7	29.478834
100	0x41fb2203	31.391607
101	0x41f458f0	30.543427
102	0x3d97ad16	0.074060604
103	0x3f8284b1	1.0196744
104	0x41e510a9	28.633135
105	0x3fc35070	1.5258923
106	0x3d4854ae	0.04890888
107	0x41fa1003	31.257818
108	0x3f7ece3d	0.99533445
109	0x41f9dd3f	31.23303
110	0x41f82e0d	31.022486
111	0x3e884d97	0.26621696
112	0x3f8b1af7	1.0867604
113	0x3f06f8d1	0.52723414
114	0x3f3bd2bd	0.73368436
115	0x41edcb86	29.724377
116	0x41f9a702	31.206547
117	0x41f4f861	30.621279
118	0x3ea66bab	0.3250402
119	0x3fabc8c7	1.3420647
120	0x41f4e7bd	30.613153
121	0x3fb0802f	1.3789119
122	0x40ad609c	5.418043
123	0x41fb2920	31.39508
124	0x41cf1ac8	25.888077
125	0x3fb694e5	1.4264189
126	0x41f8ab1e	31.083553
127	0x41b9562d	23.167078

sequential_5/batch_normalization_11/FusedBatchNormV31 f4 [128]
0	0xbe020248	-0.12696183
1	0xbe70fdab	-0.23534267
2	0xb27aa514	-1.458945e-08
3	0xb30aa8a5	-3.228401e-08
4	0x397c50fc	0.00024062762
5	0xb6a99d5d	-5.054912e-06
6	0x3ac2f494	0.0014873915
7	0xbe62cf6e	-0.2214944
8	0x38a2a2ec	7.7551085e-05
9	0x38a15aa9	7.693965e-05
10	0xba1d4db5	-0.0006000654
11	0xbe179ec1	-0.14806654
12	0x37fcf71e	3.0155814e-05
13	0xb8871aba	-6.44228e-05
14	0x39e2b057	0.00043237463
15	0x3a130242	0.00056079414
16	0x33c377fd	9.102221e-08
17	0x35b2ec1d	1.3330751e-06
18	0xbed4469c	-0.4146012
19	0xb4a04f34	-2.985995e-07
20	0x396ef2e6	0.00022787935
21	0xba231a0e	-0.0006221839
22	0xbdf61991	-0.12016595
23	0x39ca2815	0.00038558306
24	0x3b9760d8	0.004619699
25	0xbd804f2e	-0.06265102
26	0xbeb14a46	-0.3462698
27	0x3c09f2f8	0.008419745
28	0xbe408fb1	-0.18804814
29	0x37ad4d82	2.06593e-05
30	0xb54dc04a	-7.664827e-07
31	0x36572203	3.2057294e-06
32	0xb1ba7bb9	-5.427378e-09
33	0xba329f48	-0.0006813896
34	0x3902e365	0.00012482477
35	0xb5cdc0d1	-1.5329807e-06
36	0xbcf45fe4	-0.02983088
37	0x3922c7f3	0.00015524011
38	0xbd2ec74c	-0.042670533
39	0xbe3c4a75	-0.18387778
40	0x36010809	1.9227175e-06
41	0xbdc39106	-0.095491454
42	0x34167bc0	1.4014859e-07
43	0xb41bc0c4	-1.4505628e-07
44	0xb037fe9e	-6.6936845e-10
45	0xbd23cfcc	-0.039993092
46	0x35a11774	1.200226e-06
47	0xb19765c2	-4.406247e-09
48	0xbdf5f0b0	-0.12008798
49	0xbe1950a7	-0.14972173
50	0x34b1a29c	3.3087133e-07
51	0x36f11753	7.185075e-06
52	0xbeac8f52	-0.33703095
53	0x3a34127c	0.00068692095
54	0x3685219c	3.9676215e-06
55	0x37966a5d	1.7930923e-05
56	0x3c335baf	0.010947152
57	0xb31da120	-3.6700953e-08
58	0xbdea5286	-0.11441521
59	0xbdff7db2	-0.12475146
60	0xbe1d6a9e	-0.15372702
61	0xbe2fddc7	-0.17174445
62	0x3636f1c3	2.7260837e-06
63	0x3b17bd8d	0.0023153753
64	0x368ec0cb	4.254374e-06
65	0xbd85515a	-0.06509657
66	0xbe6e4d10	-0.23271585
67	0xbeb5b434	-0.35489047
68	0x398457c4	0.00025242392
69	0xb5be6778	-1.4186217e-06
70	0x31d39af2	6.1585235e-09
71	0xb9073fc3	-0.00012898356
72	0xbe40fc78	-0.18846309
73	0x3bea2f7c	0.007146774
74	0xbd2a6094	-0.04159601
75	0xbdd34a56	-0.10316913
76	0x31114cbf	2.1143902e-09
77	0x3bb2c6e2	0.0054558376
78	0x3cfe1c6f	0.031019418
79	0xbca0c5a1	-0.019625487
80	0xbe6e224b	-0.23255269
81	0x37228d78	9.688891e-06
82	0xb9593321	-0.0002071378
83	0xbc028f06	-0.00796867
84	0xbb7a6df4	-0.003821251
85	0x38e67abe	0.00010990117
86	0x3cc921af	0.024552194
87	0x3b1502e7	0.0022737326
88	0xbdf9956c	-0.12186703
89	0xbd857b1b	-0.06517621
90	0xbe9a1d47	-0.30100462
91	0xb73d5649	-1.1285368e-05
92	0xb45147ac	-1.9490716e-07
93	0x3bd77974	0.0065757576
94	0x34b6e4b6	3.406655e-07
95	0x39174c9e	0.00014429024
96	0xbc51b2fa	-0.012799019
97	0xb9b88405	-0.00035193577
98	0x38da9886	0.0001042346
99	0x39f4f67a	0.00046722946
100	0x398a15a1	0.00026337526
101	0x38a0ccb5	7.667524e-05
102	0xbe1060db	-0.14099447
103	0xbe2bcce8	-0.16777384
104	0x3b375a7f	0.0027977524
105	0xbdf05ff1	-0.11737049
106	0xbe184738	-0.14870918
107	0xb3508780	-4.855201e-08
108	0xbe148af4	-0.14506131
109	0x392fc2d2	0.00016761877
110	0x3892aab9	6.993622e-05
111	0xbd8e385e	-0.06944345
112	0xbde8e967	-0.11372643
113	0xbe4c4916	-0.19949755
114	0xbe0e2be6	-0.13883933
115	0x36deddc8	6.6419343e-06
116	0x37088c3c	8.138883e-06
117	0xb569b58f	-8.7063466e-07
118	0xbe01f18a	-0.12689796
119	0xbd97f599	-0.07419891
120	0x3c0f24be	0.008736787
121	0xbdcdfd58	-0.10058087
122	0xbd93c4f3	-0.072152995
123	0xb10cb9fa	-2.0478397e-09
124	0x39820729	0.00024800867
125	0xbdc5a25f	-0.096501105
126	0x388809a6	6.4867825e-05
127	0x3925f522	0.00015826945

sequential_5/dense_5/MatMul f4 [1, 131072]
0	0xbcb4387e	-0.021999594
1	0x3ae60a8e	0.0017550753
2	0x3a8a0689	0.0010530512
3	0x3b8b99c7	0.004260275
4	0x3abf20c4	0.0014581908
5	0x3b5e43c3	0.00339149
6	0x3cb53226	0.02211864
7	0xbcd568e0	-0.026050985
8	0x3ba297de	0.0049619516
9	0xbc07c50d	-0.008286727
10	0x3a7201b1	0.00092318194
11	0xbcf3ef8e	-0.029777315
12	0xbb04fd7a	-0.0020292685
13	0x3c53e051	0.012931899
14	0xbd1db3a9	-0.038501415
15	0x3c42943e	0.011876164
16	0xbbf5a791	-0.007496782
17	0xb7d29436	-2.5102967e-05
18	0xbc51be7f	-0.012801765
19	0xbab6a8f8	-0.0013935855
20	0x3c7610ef	0.015018686
21	0xb8a73d28	-7.974572e-05
22	0x3d1a7b6a	0.037715353
23	0x3ba2365f	0.004950329
24	0xbc8254dc	-0.015909605
25	0xbc6ecdbd	-0.014575419
26	0xbc870d15	-0.01648573
27	0xbc61955c	-0.01376852
28	0x3d020bff	0.03174972
29	0xbacc1335	-0.0015569689
30	0xbb9bbcdb	-0.004752738
31	0x3b9410a4	0.0045185853
32	0x3c0d4168	0.008621551
33	0xbaf5aea2	-0.0018744061
34	0x3c455c73	0.012045967
35	0x3c11afd2	0.0088920165
36	0xbcb9c3ba	-0.022676338
37	0xba0a3504	-0.0005272182
38	0x3c893fe1	0.016754093
39	0x3d2fc4ac	0.04291217
40	0x3c6de052	0.014518814
41	0x3bd45541	0.0064798896
42	0x3b77c515	0.003780668
43	0x3b6840f5	0.0035439108
44	0x3be45906	0.0069686202
45	0xbcc96972	-0.024586413
46	0x3b0d9995	0.0021606435
47	0xbc203c46	-0.009779995
48	0xbb5389dc	-0.0032278216
49	0x3be77e27	0.007064599
50	0xbc237e2e	-0.009978814
51	0xbbd04480	-0.006355822
52	0x3cbf853c	0.02337896
53	0xbb59804f	-0.003318805
54	0x3c1cda97	0.0095736
55	0x3c2b0797	0.010438821
56	0x3ca2ba28	0.019864157
57	0x3ba5a070	0.005054526
58	0x3bdffcfc	0.006835578
59	0xbc8b2936	-0.016987424
60	0xbb9d0916	-0.004792343
61	0xbc523fbd	-0.012832579
62	0x3a1cfb11	0.00059883395
63	0xba701910	-0.0009159008
64	0xbade35d8	-0.0016953303
65	0xbd4f1b34	-0.050563052
66	0x3c00b1b9	0.007854872
67	0xbcf73649	-0.030177252
68	0x3bcdfd43	0.0062862947
69	0x3b547820	0.0032420233
70	0xbb81bc23	-0.003959195
71	0xb96e724a	-0.00022740025
72	0x3c796e91	0.015224115
73	0x3aa42bfa	0.0012525313
74	0x3d151454	0.03639634
75	0x3d0438f8	0.032280892
76	0xba799f3a	-0.0009522323
77	0xbbe2a6a5	-0.006916838
78	0xbc50c54f	-0.012742355
79	0xbd0c3952	-0.034234352
80	0xbcfb952e	-0.030710783
81	0x3b2b7bf0	0.0026166402
82	0xb9bf1fdc	-0.00036454096
83	0xbc7400ba	-0.014892751
84	0xbc3719d7	-0.011175594
85	0x3b00afdc	0.001963607
86	0x3bcaea29	0.006192465
87	0x3b83be47	0.0040204856
88	0x3c817a0c	0.015805267
89	0x3ca4d5a3	0.020121401
90	0xbcd5a8c2	-0.026081447
91	0x3b970386	0.0046085743
92	0x3c28d5bd	0.010304865
93	0xbbc6df46	-0.0060690967
94	0x3adffc27	0.0017088697
95	0x3bfdb887	0.0077429446
96	0xbcd01741	-0.025401713
97	0x3c8b0367	0.016969396
98	0x3c79fe14	0.015258331
99	0x3be2bcbc	0.0069194715
100	0xb8548a1c	-5.0673363e-05
101	0x398ddfad	0.00027060267
102	0xbc9bbda8	-0.019011334
103	0x3c8fe466	0.017564964
104	0xb707bef4	-8.091087e-06
105	0xbb6d72cb	-0.0036231752
106	0xbc12a7cb	-0.008951138
107	0xbb1f0d2e	-0.002426933
108	0x3cad691a	0.02116828
109	0x3c0048a2	0.007829817
110	0x3c000308	0.007813223
111	0xbc0525b0	-0.008126661
112	0x3d07a883	0.03311969
113	0xbc8fbf2f	-0.017547218
114	0x3cf82be5	0.030294368
115	0xbc3d6b7b	-0.01156127
116	0xbb0fedc8	-0.0021961797
117	0x3926836f	0.00015879956
118	0x3ae7bf25	0.0017680867
119	0x3b7101fe	0.003677487
120	0xbbf33048	-0.007421527
121	0xbc12dd93	-0.00896396
122	0x3ca2d67b	0.019877663
123	0x3be4b32d	0.006979367
124	0xbc1d7e77	-0.009612671
125	0xbd3838c2	-0.044976003
126	0xbaa4b113	-0.0012564979
127	0x3ad7ce64	0.0016464707
128	0xbb23bc52	-0.0024984074
129	0x39c03466	0.00036660134
130	0xbb1571f9	-0.0022803529
131	0xba85bc32	-0.0010203181
132	0xbb687074	-0.0035467418
133	0xbbd5a519	-0.0065199253
134	0x3d0c506b	0.03425638
135	0xbd5e3a47	-0.054254796
136	0x3bb48a63	0.005509661
137	0xbaadc913	-0.0013258777
138	0x3b64bd9d	0.0034903057
139	0x3cea4983	0.028599506
140	0xbabc1c13	-0.0014351628
141	0x3c55a70f	0.013040318
142	0xbc3798a7	-0.011205829
143	0xbbaaa1ed	-0.0052072913
144	0xba4a3730	-0.0007713912
145	0xbbb00420	-0.0053715855
146	0x3b3aa588	0.0028480012
147	0xb8c4b3ec	-9.379521e-05
148	0x3baa8408	0.0052037276
149	0x3c93b2d3	0.018029606
150	0x3d974e84	0.073880225
151	0xbb1df56c	-0.0024102582
152	0x3c7c11c3	0.015385094
153	0xbcc04092	-0.02346829
154	0x39c587c7	0.0003767593
155	0xbc81f025	-0.01586158
156	0x3ce89e50	0.028395802
157	0x3bd7ee02	0.006589652
158	0x3b86fd6e	0.0041195666
159	0xbae73dcf	-0.0017642322
160	0x391e8d02	0.00015120584
161	0xbb0a6689	-0.0021118245
162	0x3b563cfc	0.0032690158
163	0xbc2baeb8	-0.010478668
164	0x3ad2929f	0.0016065425
165	0x3ca81691	0.020518573
166	0x3be23786	0.0069035916
167	0xbbd152b9	-0.006388035
168	0xbc7f99ab	-0.015600602
169	0x3bf56a24	0.0074894596
170	0x3ab5145d	0.0013815273
171	0x3b8c5d59	0.004283589
172	0x3bbfe04c	0.0058555957
173	0x3d1771bf	0.03697371
174	0x3c34f696	0.011045119
175	0xbb69e042	-0.0035686647
176	0x3c6e0008	0.014526375
177	0x3d43fd74	0.047849134
178	0x3c5d1f41	0.013496221
179	0x3b32cfff	0.002728462
180	0x3d4f2402	0.05057145
181	0x3aefe0ef	0.0018301288
182	0x38df77ad	0.0001065576
183	0x3bf3d53e	0.007441192
184	0xbc01166d	-0.007878882
185	0x3be542b6	0.006996478
186	0xbd6767d0	-0.056495488
187	0x3ccef469	0.025263028
188	0x3c51ff60	0.012817234
189	0xbcede634	-0.029040433
190	0x39ba6541	0.00035552125
191	0xba91f4f4	-0.0011135624
192	0x3bdd9da1	0.0067631756
193	0xbd807653	-0.062725686
194	0x3cb611d6	0.022225302
195	0xbcef0f4b	-0.029182097
196	0xbb02fc8a	-0.001998695
197	0xbc2dd301	-0.010609389
198	0xbb9b4de3	-0.0047395094
199	0x3c185849	0.009298393
200	0xbb718e4d	-0.00368585
201	0xbc349cc0	-0.0110237
202	0xbc972a71	-0.018452855
203	0x3b62d794	0.0034613358
204	0x3bc7f385	0.006102028
205	0xbc730783	-0.014833334
206	0xbd0e432b	-0.034732025
207	0xbd272c67	-0.04081383
208	0xbc73d569	-0.014882424
209	0x3b8413d0	0.004030682
210	0xbba39402	-0.004992009
211	0x3d23fcd7	0.04003605
212	0xbc1e7a48	-0.009672709
213	0x37ef15d2	2.8501181e-05
214	0x3b2c57d4	0.0026297467
215	0xbc18561d	-0.009297875
216	0x3d20bd65	0.03924312
217	0xbce81c34	-0.02833376
218	0xbc84664b	-0.016162058
219	0x3be27998	0.0069114678
220	0x3b5c998a	0.0033660852
221	0xbc819f06	-0.015822899
222	0xbaaba689	-0.0013095896
223	0xbb3c764a	-0.002875703
224	0x3cfc11b4	0.03077016
225	0x3c2a1ff9	0.010383599
226	0x3b11a0b5	0.0022221033
227	0xbbe4ecbd	-0.006986229
228	0x3b4be6d0	0.0031112917
229	0xbbd8a4fb	-0.006611464
230	0x3b8e1062	0.004335449
231	0x3ce0757e	0.027399775
232	0x3b841e0f	0.0040319036
233	0x3db07879	0.08616728
234	0xbd5a9b96	-0.053371035
235	0xbac63be7	-0.0015124053
236	0xbc8f7d94	-0.017515935
237	0x3ba887f1	0.0051431586
238	0x3bba7b53	0.005690971
239	0xbc833301	-0.016015531
240	0x3d1153c1	0.035480265
241	0xbbe45098	-0.0069676153
242	0xbcacc8b6	-0.0210918
243	0xba34a7de	-0.0006891469
244	0x3a260767	0.00063335005
245	0x39508dbb	0.00019889224
246	0x3c00a494	0.0078517385
247	0xbb2481b4	-0.0025101723
248	0x3bb9a460	0.005665347
249	0x3c868363	0.016420072
250	0x3cf3fa29	0.029782372
251	0xbbec6da1	-0.007215217
252	0x3b43f59e	0.0029901038
253	0xbc11ddeb	-0.008903007
254	0x3be5bc7d	0.007010995
255	0x3c44e3bc	0.012017187

sequential_5/conv2d_20/Conv2D f4 [16, 3, 3, 3]
0	0xbe292871	-0.16519333
1	0x3c02a780	0.007974505
2	0x3e20d6cf	0.15706943
3	0x3e0927f1	0.13394143
4	0x3e58b128	0.2116133
5	0x3dbbf794	0.09178081
6	0x3b0516de	0.002030782
7	0x3e0ed08c	0.13946742
8	0x3da89795	0.08232037
9	0xbe6ab7a3	-0.22921614
10	0xbe5eab92	-0.21745136
11	0xbdd3758f	-0.10325157
12	0x3e1e4c1b	0.1545872
13	0x3db21a3c	0.0869641
14	0xbd8ed701	-0.069746025
15	0x3d9711ff	0.07376479
16	0xbdab21f8	-0.083560884
17	0xbdf0b33d	-0.11752937
18	0x3d15f8fd	0.036614407
19	0xbc886408	-0.016649261
20	0xbe633137	-0.22186743
21	0x3db8a50a	0.09015854
22	0x3e379f81	0.1793194
23	0x3e112a27	0.14176236
24	0x3d2fc6ce	0.042914204
25	0xbe0fe6ea	-0.1405293
26	0x3d286bba	0.04111836
27	0xbe5fe5b6	-0.21864972
28	0xbe2e04d9	-0.16994037
29	0x3dbf8ccb	0.09353026
30	0x3e0b1de2	0.13585618
31	0x3d569cf9	0.052395795
32	0x3da07397	0.07834547
33	0xbe099ca4	-0.1343866
34	0xbdc7e122	-0.097597376
35	0xbd72542f	-0.059162315
36	0xbd85f6e6	-0.06541233
37	0xbccca7c5	-0.024982342
38	0xbdbc89d3	-0.092059754
39	0xbe205155	-0.15656026
40	0x3d1d47d3	0.038398575
41	0xbe0f931f	-0.14020966
42	0x3d09cdb9	0.033643458
43	0x3dc1b337	0.09458011
44	0xbe278117	-0.16357838
45	0x3d046253	0.03232033
46	0xbc44d434	-0.012013484
47	0xbdb22c33	-0.086998366
48	0xbe2e93df	-0.17048596
49	0x3e0dc7a4	0.13845688
50	0xbd994cf5	-0.074853815
51	0xbe0f1c90	-0.1397574
52	0x3e1166fd	0.14199443
53	0xbe59a8a9	-0.21255745
54	0x3d22dcbf	0.0397613
55	0xbe06e3bc	-0.13172811
56	0xbe05bc20	-0.13060045
57	0x3e2aae8e	0.1666815
58	0xbe27486a	-0.16336218
59	0xbdb4ef4c	-0.08834705
60	0xbda89a48	-0.08232552
61	0xbb5091be	-0.003182515
62	0xbdcd3783	-0.10020354
63	0x3d26ee8d	0.040754844
64	0x3d8be1d2	0.06830181
65	0x3de54f10	0.111967206
66	0x3e00cc99	0.12578048
67	0xbd29047e	-0.04126405
68	0xbd557d63	-0.05212153
69	0xbdd1b1e0	-0.10239005
70	0x3c8a18c9	0.016857522
71	0xbd3a4e29	-0.045484696
72	0x3df5082b	0.119644485
73	0xbdecc03d	-0.11560104
74	0x3e0de1ba	0.13855639
75	0x3dd0308c	0.101655096
76	0xbda255b1	-0.079265006
77	0xbdfd6910	-0.12373555
78	0xbdb8902f	-0.09011876
79	0xbddda12c	-0.10821757
80	0xbe280cba	-0.16411105
81	0xbd718ab3	-0.058970165
82	0xbe314e94	-0.17315131
83	0x3e408ed5	0.18804486
84	0xbc355bb6	-0.011069229
85	0xbe43cbd2	-0.1912072
86	0x3e44a211	0.19202448
87	0x3e38739c	0.18012851
88	0x3dc9b657	0.09849232
89	0x3d760ec4	0.060072675
90	0x3e11ea29	0.14249481
91	0xbd87847f	-0.066170685
92	0x3e11ef15	0.14251359
93	0x3dafacb7	0.085778646
94	0x3e16092a	0.14651933
95	0xbe15dd21	-0.14635135
96	0xbe18affd	-0.14910884
97	0xbe133ae7	-0.14377938
98	0xbdd11504	-0.102090865
99	0xbe4cb562	-0.19991067
100	0xbe37b2f3	-0.17939357
101	0xbe2b4650	-0.16726041
102	0x3e2a5191	0.16632678
103	0xbd66b3ac	-0.056323692
104	0xbdaa26e1	-0.08308197
105	0x3e136692	0.14394596
106	0x3cb00237	0.021485431
107	0x3e6a7d6b	0.22899406
108	0x3d966bf0	0.07344806
109	0x3e00ab2d	0.12565298
110	0xbc7d6793	-0.015466589
111	0xbc9986c5	-0.018741021
112	0xbde7d27e	-0.11319445
113	0x3e14ee25	0.1454397
114	0xbbdf141e	-0.006807818
115	0xbe499c3f	-0.1968851
116	0xbc5a91fa	-0.013340468
117	0x3d8bc2af	0.06824242
118	0x3a06de22	0.00051447947
119	0xbe33e9ce	-0.17569658
120	0xbb8b6765	-0.004254269
121	0xbd5f12f0	-0.05446142
122	0x3d711eeb	0.058867376
123	0x3da74176	0.081667826
124	0x3e28726e	0.16449901
125	0x3e667cda	0.22508565
126	0xbdea7504	-0.114481
127	0xbdb566fb	-0.088575326
128	0xbc7a4e87	-0.015277511
129	0xbe2d58aa	-0.16928354
130	0x3d30bcaf	0.043148693
131	0xbe2ff5b0	-0.17183566
132	0xbe0e4a76	-0.13895592
133	0xbda49956	-0.08037059
134	0x3c1d8375	0.009613861
135	0x3cf38875	0.029728154
136	0xbcdd3944	-0.027004845
137	0xbdac205e	-0.08404611
138	0x3e321e46	0.17394361
139	0xbde4656f	-0.111521594
140	0x3e0878f8	0.13327396
141	0x3e07cc2e	0.13261482
142	0xbd808988	-0.06276232
143	0xbd9a1d44	-0.07525113
144	0x3e40cb42	0.18827537
145	0x3d2aa17c	0.04165791
146	0xbcc5c51b	-0.024141839
147	0xbd265df9	-0.040616963
148	0x3db76d1b	0.08956357
149	0x3df29500	0.11844826
150	0x3d450839	0.048103545
151	0x3cf71e3e	0.030165788
152	0x3d339b23	0.04384912
153	0x3e292568	0.16518176
154	0xbe01be8c	-0.12670344
155	0xbe5374d6	-0.20650038
156	0x3d6c02c0	0.05761981
157	0x3c9371e1	0.017998638
158	0x3e1b1a1e	0.15146682
159	0x3e44f795	0.1923507
160	0x3e3aa02c	0.18225163
161	0x3d9fb5ee	0.07798372
162	0xbdcd1a7b	-0.100148164
163	0xbdd87284	-0.10568717
164	0xbcc602b3	-0.024171209
165	0xbda8d9bf	-0.08244657
166	0x3d7270ea	0.059189714
167	0xbd94f6ff	-0.07273673
168	0xbddcc1b5	-0.10779134
169	0x3def7bc5	0.11693529
170	0x3dac7ab2	0.0842184
171	0x3dda8858	0.10670537
172	0x3cb16c39	0.02165805
173	0xbe21230f	-0.1573603
174	0xbe124e7b	-0.1428775
175	0xbb12af84	-0.0022382447
176	0x3c42a011	0.011878983
177	0xbd15a199	-0.036531065
178	0xbe65a17d	-0.22424884
179	0x3d0455ea	0.032308497
180	0x3bd9f83b	0.006651906
181	0x3d9274eb	0.071512066
182	0x3e18e9c6	0.14932927
183	0xbd41d78a	-0.047324695
184	0xbd01c687	-0.03168347
185	0xbd8fe517	-0.07026117
186	0x3de1f38b	0.1103278
187	0x3dfd1ae5	0.12358645
188	0x3e432b47	0.19059478
189	0xbe3d3a3c	-0.18479246
190	0xbe6798f5	-0.22616942
191	0xbe4c8d0f	-0.19975685
192	0xbe5774c5	-0.21040638
193	0x3d5ecee9	0.054396544
194	0x3d1a4268	0.037660986
195	0xbe4e1fc1	-0.201293
196	0xbbd4ed14	-0.0064979885
197	0xbba02230	-0.004886888
198	0x3d9e47e6	0.07728557
199	0x3d32dc62	0.043667205
200	0x3e11f874	0.14254934
201	0x3d97d24e	0.07413159
202	0x3d07d364	0.033160582
203	0xbd6ead33	-0.058270644
204	0x3deea9fb	0.11653515
205	0xbd60857c	-0.0548148
206	0x3e36c9bb	0.17850392
207	0xbc7f96d1	-0.015599922
208	0x3e3dc412	0.18531826
209	0x3dce7c0e	0.10082255
210	0xbdb7955b	-0.08964034
211	0x3ce0c488	0.027437463
212	0xbd0718d8	-0.032982677
213	0xbdc12727	-0.09431296
214	0x3c5ed7be	0.013601242
215	0xbe1c1a42	-0.15244392
216	0x3dfda9e1	0.123859175
217	0x3d0d6998	0.03452453
218	0x3e3c6bd7	0.18400513
219	0xbe5e4c68	-0.21708834
220	0xbd0f4f97	-0.034988012
221	0x3dd7863c	0.1052365
222	0x3dec55e5	0.115398206
223	0xbe1b0351	-0.15137984
224	0x3e3fa966	0.18716964
225	0xbe413fb9	-0.18871965
226	0xbd0ebc6b	-0.034847658
227	0xbe29bd0d	-0.16576023
228	0x3ca32f76	0.019920092
229	0xbe3648b0	-0.17801166
230	0x3e33e55f	0.17567967
231	0x3e0b564f	0.13607143
232	0x3ddaca65	0.10683135
233	0xbdce8dbc	-0.100856274
234	0x3cbb9b72	0.02290127
235	0xbe29256d	-0.16518183
236	0xbe161f25	-0.14660318
237	0x3e0d3af0	0.13792014
238	0xbe086aa3	-0.13321929
239	0xbb7fd196	-0.0039034835
240	0x3e085aa7	0.13315831
241	0x3e2ec57b	0.1706752
242	0x3dd9a336	0.10626833
243	0x3e1f2115	0.15539964
244	0xbd2ceab9	-0.042216036
245	0x3b53dc6c	0.0032327427
246	0xbb15e4c3	-0.0022871948
247	0x3e00610c	0.1253702
248	0x3e075d83	0.13219266
249	0x3da9b4e6	0.08286457
250	0xbdb020da	-0.08600016
251	0xbdddbbf8	-0.10826868
252	0xbe03634a	-0.12830845
253	0xbd775922	-0.060387738
254	0xbe4182dd	-0.18897577
255	0xbe331fa7	-0.17492543

sequential_5/conv2d_21/Conv2D f4 [32, 3, 3, 16]
0	0x3c24c8f3	0.010057676
1	0x3d46ccb3	0.04853506
2	0xbd02decf	-0.031950768
3	0xbdbd6678	-0.0924806
4	0xbbfbaffd	-0.0076808915
5	0x3caca85e	0.021076377
6	0xba102010	-0.0005497942
7	0xbdad91d2	-0.08475079
8	0xbd9077c4	-0.070540935
9	0xbc7e3f4d	-0.015518022
10	0x3da1da1b	0.079029284
11	0xbccbbee2	-0.024871293
12	0xbdb3c57b	-0.08777901
13	0x3dca62e6	0.09882145
14	0x3db895ea	0.09012969
15	0xbc199051	-0.009372787
16	0xbdabbbc3	-0.08385422
17	0xbd6bf02a	-0.057602085
18	0x3dd0ee75	0.10201732
19	0xbc67808c	-0.014129769
20	0xbd512069	-0.0510563
21	0x3b2d8703	0.0026478178
22	0x3d9a619e	0.0753815
23	0x3ba74f03	0.0051058545
24	0xbd1648f0	-0.036690652
25	0x3de32f51	0.11093009
26	0x3dfc3ed5	0.12316672
27	0x3c920df5	0.01782892
28	0x3da43cb6	0.08019392
29	0x3da795a4	0.081828386
30	0x3d438210	0.04773146
31	0x3e33d781	0.17562677
32	0xbd8165d9	-0.06318254
33	0xbd2d3cc8	-0.042294294
34	0xbd507baf	-0.050899204
35	0xbdea6cbb	-0.1144652
36	0x3d81a322	0.06329943
37	0x3ce99955	0.028515497
38	0xbd33b077	-0.043869462
39	0x3e0391f6	0.12848648
40	0x3cee62b1	0.029099794
41	0xbd159b3d	-0.036525
42	0x3cc0336f	0.023462025
43	0x3c8ac698	0.0169404
44	0xbd3ccb7f	-0.046092506
45	0x3e14cc69	0.14531101
46	0x3dac29c1	0.084064014
47	0xbe0905e6	-0.13381156
48	0xbc9c2989	-0.019062774
49	0x3e10030b	0.14063661
50	0x3dc8482e	0.09779392
51	0x3c68218d	0.014168155
52	0xbc88231d	-0.016618306
53	0xbd8503cc	-0.06494865
54	0xbcd091fa	-0.025460232
55	0x3d320eb5	0.043471057
56	0xbc4ce320	-0.012505323
57	0xbd17cce0	-0.03706062
58	0x3ac03c6f	0.0014666448
59	0x3dbdb773	0.09263506
60	0x3cc33b34	0.023831941
61	0x3db779e1	0.089587934
62	0x3d8ef915	0.069811024
63	0xbbce40d5	-0.0062943497
64	0xbd54ec32	-0.051983066
65	0x3dc134d3	0.094339035
66	0xbd352801	-0.044227604
67	0xbc04add6	-0.008098086
68	0xbd08dd5e	-0.033414237
69	0x3dc5cccf	0.09658205
70	0xbd98a54b	-0.07453402
71	0x3d843e1e	0.064571604
72	0x3d3a2643	0.045446645
73	0xbd9c4596	-0.0763046
74	0x3ce2baff	0.027677057
75	0xbdc186e4	-0.094495565
76	0x3cceb296	0.02523164
77	0xbdbafb09	-0.091299124
78	0x3d999446	0.07498984
79	0x3d53c232	0.05169887
80	0x3d0070ab	0.03135745
81	0x3db37f5c	0.08764526
82	0x3d621da0	0.055204034
83	0x3d8b8da6	0.06814127
84	0xbdf34e36	-0.11880152
85	0x3db90d1b	0.09035703
86	0x3db59312	0.08865942
87	0xbc9e6158	-0.019333526
88	0x3ca84c84	0.020544298
89	0x3df2d694	0.11857334
90	0xbb15d342	-0.0022861515
91	0x3cf2c5aa	0.02963527
92	0x3c56bf8a	0.01310719
93	0xbe092706	-0.13393793
94	0x3dd8b1ea	0.105808094
95	0xbc9d0098	-0.019165322
96	0xbd75651a	-0.05991087
97	0x3cec556f	0.028849332
98	0x3dbac140	0.09118891
99	0x3dc28769	0.09498484
100	0x3e134df2	0.14385203
101	0x3cefa0ae	0.029251423
102	0x3cf755ed	0.03019234
103	0x3dd949bd	0.106097676
104	0x3d97206f	0.07379233
105	0x3bcce41b	0.006252778
106	0xbd096874	-0.03354688
107	0x3d167828	0.036735684
108	0x3c06dfff	0.008232116
109	0x3e1f640c	0.15565509
110	0x3d2dd6ad	0.04244106
111	0xbdb2b9ca	-0.08726843
112	0x3d41a198	0.04727325
113	0xbdb79289	-0.08963496
114	0xbd2a5f09	-0.04159454
115	0x3d0a4b68	0.03376332
116	0x3d8646b8	0.06556457
117	0xbd24cfbe	-0.04023718
118	0xbdc3fbe8	-0.09569532
119	0x3b114dbb	0.0022171575
120	0x3c9a80ce	0.018860247
121	0x3dac7cfa	0.08422275
122	0x3db6e868	0.08931047
123	0xbd304c47	-0.043041494
124	0xbb91b8dc	-0.004447086
125	0x3e316750	0.17324567
126	0x3dc9b9b4	0.09849873
127	0x3e445d96	0.19176325
128	0x3c815768	0.015788749
129	0x3c249d31	0.010047243
130	0x3c2c6291	0.010521547
131	0xbc5a1507	-0.013310677
132	0x3d043c88	0.03228429
133	0x3cdfd821	0.027324738
134	0xbdad3572	-0.084574595
135	0x3db9b80f	0.090683095
136	0xbdbfd0af	-0.09365975
137	0xbc76698e	-0.015039815
138	0x3e0817a5	0.1329027
139	0xbd7dcdfd	-0.061964024
140	0xbdcfe14c	-0.10150394
141	0x3dfcb092	0.123383656
142	0xbe14f9da	-0.14548436
143	0xbd3861f6	-0.045015298
144	0xbca28357	-0.019838018
145	0xbe2aab2c	-0.1666686
146	0xbcd11703	-0.025523668
147	0x3dc9e470	0.09858024
148	0x3dca81da	0.098880485
149	0x3cdc9c6d	0.026930058
150	0x3dbe6237	0.09296077
151	0x3bc2d6ff	0.0059460397
152	0x3dbdee0a	0.09273918
153	0x3dcc1b50	0.09966147
154	0x3cca2e77	0.02468036
155	0xbd2f4a60	-0.04279554
156	0x3c7ea9cf	0.015543415
157	0xbd3b12c2	-0.045672186
158	0x3c761c96	0.015021464
159	0xbdf9e59f	-0.12202
160	0x3d82dae4	0.06389406
161	0xbd19b7dd	-0.03752886
162	0xbc9ef1d9	-0.019402431
163	0x3d87bc02	0.066276565
164	0x3d30bd28	0.043149143
165	0x3cc24dfd	0.023718828
166	0xbc7beaa6	-0.015375769
167	0xbe037e3d	-0.12841125
168	0x3dcb7d94	0.099360615
169	0x3dd39d1c	0.103327006
170	0xbc8d11bc	-0.01722037
171	0x3d9e0ea0	0.07717633
172	0x3e3d3fdd	0.18481393
173	0xbccd3b22	-0.02505261
174	0xbd9ac583	-0.075572036
175	0xbda35dfa	-0.07976909
176	0x3dcabcfc	0.09899327
177	0xbdcddafe	-0.10051535
178	0x3c8eafce	0.017417815
179	0x3debb16b	0.11508449
180	0x3e21d7de	0.15805003
181	0x3adebf24	0.001699422
182	0x3c6f3ae8	0.014601447
183	0x3c86277c	0.01637625
184	0x3d3b2404	0.045688644
185	0xbb475cf2	-0.003042039
186	0x3dcec84c	0.10096797
187	0x3d128fb2	0.03578157
188	0x3dd76f0c	0.105192274
189	0x3d99f754	0.07517877
190	0x3d800385	0.06250671
191	0x3e029d78	0.12755382
192	0xbdfc9a3f	-0.123341076
193	0xbcd01dc1	-0.025404813
194	0x3db43d43	0.08800747
195	0x3d0addc3	0.033902895
196	0x3bf2073b	0.007386116
197	0x3d8dfcbd	0.069329716
198	0xbd87e373	-0.06635179
199	0xbcf1c3e6	-0.029512357
200	0xbc75dadf	-0.015005796
201	0x3df723bb	0.12067362
202	0xbdf144fb	-0.11780735
203	0x3de82fe0	0.113372564
204	0xbd0497b2	-0.03237123
205	0x3da6945b	0.08133765
206	0x3d6cac70	0.057781637
207	0xbe524c0c	-0.20536822
208	0xbc2e919a	-0.010654831
209	0xbe20b824	-0.15695244
210	0x3dad1e69	0.08453066
211	0x3b2737db	0.002551547
212	0xbcb8b5e7	-0.022547675
213	0x3d925073	0.07144251
214	0xbde75d6a	-0.11297114
215	0xbc98a607	-0.018633856
216	0xbd3e97b3	-0.04653139
217	0x3ca744eb	0.020418605
218	0xbc99a851	-0.018757017
219	0xbcc898e3	-0.024486965
220	0x3cd49436	0.025949579
221	0xbd735ce3	-0.059414756
222	0xbcdf6784	-0.02727104
223	0xbdb4ae8b	-0.08822354
224	0xbd94829f	-0.072514765
225	0xbe64de57	-0.22350441
226	0x3e1eb92c	0.15500325
227	0x3e042bce	0.12907335
228	0xbc18e07f	-0.009330868
229	0x3d7f4a01	0.062326435
230	0xbdca50e8	-0.09878713
231	0xbe32772b	-0.17428271
232	0xbda2266b	-0.07917484
233	0xbd10447c	-0.03522156
234	0x3d879401	0.066200264
235	0xbd953ab2	-0.07286586
236	0x3d6772d4	0.056505993
237	0xbbe2a1f7	-0.0069162804
238	0xbd7d13a6	-0.061786316
239	0xbc7339ce	-0.014845325
240	0xbdca21f8	-0.0986976
241	0xbdf8266f	-0.121167056
242	0x3c4de1f6	0.01256608
243	0xbdacc5c4	-0.08436158
244	0xbc7f6f5d	-0.015590516
245	0x3dcc08b0	0.099625945
246	0x3d4a6c6e	0.049419813
247	0xbca410d9	-0.020027565
248	0x3dc9d4ae	0.098550186
249	0x3d54eda5	0.051984448
250	0x3d21384b	0.039360326
251	0x3bedb30a	0.007254009
252	0x3d703aeb	0.05864994
253	0x3c59068f	0.013246193
254	0xbcfcd94c	-0.030865334
255	0xbdb4f9cd	-0.08836708

sequential_5/conv2d_22/Conv2D f4 [64, 3, 3, 32]
0	0xbbef0834	-0.007294679
1	0xbd5ce1fe	-0.05392646
2	0x3e23e088	0.1600362
3	0xbc8c8cc8	-0.017156973
4	0xbbbe9b44	-0.005816849
5	0xbdca4f3a	-0.098783925
6	0x3d9775b3	0.07395496
7	0xbd0f6355	-0.03500684
8	0x3b89e576	0.004208262
9	0xbd89733c	-0.06711432
10	0xbb06f47f	-0.0020592508
11	0x3cb7e4e6	0.022448014
12	0xbd9f00e1	-0.077638395
13	0xbd71d246	-0.059038423
14	0x3d008461	0.031376246
15	0x3c8f8138	0.017517671
16	0xbcbf214e	-0.02333131
17	0xbdeff159	-0.11715955
18	0x3d8351eb	0.06412109
19	0xbdf34a54	-0.11879411
20	0x3d268b90	0.04066044
21	0x3d8ebb66	0.06969337
22	0xbdb0dece	-0.086362466
23	0x3d40564a	0.04695729
24	0x3d709714	0.05873783
25	0xbcaacab4	-0.02084861
26	0xbd7dd621	-0.061971787
27	0xbdc1c283	-0.09460928
28	0xbcf512cc	-0.02991619
29	0x3cc1a385	0.023637543
30	0xbd459173	-0.048234414
31	0x3d0f42f8	0.034975976
32	0xbd8ec845	-0.06971792
33	0xbaa93414	-0.0012909197
34	0x3bc1e8e7	0.0059176567
35	0x3b08d0b2	0.0020876345
36	0x3d32c02c	0.0436403
37	0xbcb76675	-0.022387723
38	0xbc8a947a	-0.016916502
39	0x3cdf443f	0.027254222
40	0xbe211d0f	-0.15733741
41	0xbd835f36	-0.064146444
42	0x3d0d4ed1	0.034498993
43	0x3dd834bc	0.10556933
44	0xbca112d3	-0.019662296
45	0xbbc56ebd	-0.006025164
46	0xbb7e2ec4	-0.0038785199
47	0xbc9641aa	-0.018341858
48	0xbd84246c	-0.064522594
49	0x3e0ef8e5	0.13962133
50	0xbc2ba553	-0.010476428
51	0x3c14dada	0.009085381
52	0xbd626af0	-0.055277765
53	0xbd5911f4	-0.052995637
54	0xbdb83b02	-0.0899563
55	0xbd0ed808	-0.034873992
56	0xbd851471	-0.064980395
57	0xb9ad7f4b	-0.00033091972
58	0x3d77bc8d	0.06048255
59	0xbc84eba5	-0.016225645
60	0xbd8c7879	-0.06858916
61	0x3d30dc80	0.043179035
62	0xbd7f368d	-0.062307883
63	0xbdc0f76c	-0.09422192
64	0x3c2af7f2	0.010435091
65	0x3cebc125	0.028778622
66	0xbd4ceca9	-0.050030384
67	0xbd74cecf	-0.05976754
68	0x3cc2c503	0.023775583
69	0x3d02ce28	0.031934887
70	0xbca1bc6e	-0.01974317
71	0x3d2db75c	0.042411193
72	0x3d78ab44	0.060710207
73	0x3db4fdc7	0.08837467
74	0xbd7d2cd7	-0.06181034
75	0x3df3110b	0.11868485
76	0x3d85c0ba	0.065309
77	0xbce50e01	-0.02796078
78	0xbbe9b204	-0.007131817
79	0x3c9de967	0.019276334
80	0x3d7e0a2f	0.06202143
81	0xbcaded73	-0.021231389
82	0x3be0e89d	0.006863667
83	0x3daad3ae	0.08341156
84	0xbce45f6c	-0.027877532
85	0x3ddcb7bc	0.10777232
86	0xbd73bde4	-0.059507266
87	0x3d39a5f3	0.045324277
88	0x3dacef1a	0.084440425
89	0xbd907d38	-0.070551336
90	0xbc003943	-0.007826152
91	0x3c61a457	0.013772092
92	0x3d27d264	0.04097213
93	0x3d59fda1	0.053220395
94	0xbd26f768	-0.04076329
95	0x3d41520e	0.047197394
96	0x3c7c67c2	0.015405597
97	0x3d304dae	0.04304283
98	0x3dc9803e	0.098389134
99	0xbdaef15f	-0.08542132
100	0xbcd97a3f	-0.02654755
101	0xbd972ee0	-0.073819876
102	0x3aa25834	0.0012385906
103	0xbdb17348	-0.08664566
104	0x3e1956ff	0.14974593
105	0xbd83718d	-0.064181425
106	0xbdc0fb2c	-0.09422907
107	0x3d7f2a59	0.062296245
108	0x3cb33e0c	0.021880172
109	0xbd6d6225	-0.057954926
110	0x3db5c676	0.08875744
111	0xbdb2e5bb	-0.08735224
112	0xbd8a4b20	-0.0675261
113	0xbdf5d6f9	-0.120038934
114	0xbb08e8ce	-0.0020890716
115	0xbd0a1d09	-0.033719096
116	0xbc71c693	-0.014756816
117	0x3d5bf29d	0.05369817
118	0xbe4312af	-0.19050096
119	0xbd7a0dc1	-0.061048273
120	0x3c914009	0.01773073
121	0x3ced1725	0.0289417
122	0xbd1b44ba	-0.03790734
123	0x3b7f2acc	0.003893542
124	0xbd3bbf86	-0.045836948
125	0x3d4cf161	0.050034884
126	0x3d138f98	0.036025614
127	0x3d2f0b8b	0.042735618
128	0x3d60b4d1	0.05485994
129	0xbd1ac019	-0.037780855
130	0xbd43e76e	-0.04782813
131	0xbd9b3e18	-0.07580203
132	0xbdbdcc63	-0.09267499
133	0xbdcfe7dc	-0.101516455
134	0xbdc06c2a	-0.09395631
135	0x3df52425	0.11969785
136	0x3c464610	0.012101665
137	0x3c824721	0.015903058
138	0xbde699e6	-0.112598225
139	0x3dc58d10	0.09646046
140	0xbd770f21	-0.060317162
141	0xbdd50e58	-0.104031265
142	0xbb612984	-0.003435702
143	0xbdafc6a1	-0.08582807
144	0x3c03ff81	0.008056522
145	0x3df5b634	0.11997643
146	0x3c3e40ef	0.011612161
147	0xbdb607b1	-0.08888186
148	0xbcd4113b	-0.025887122
149	0xbdb7c229	-0.0897258
150	0xbd933968	-0.07188684
151	0xbdfb1373	-0.12259569
152	0x3d05b8c0	0.032646894
153	0xbd082c84	-0.03324558
154	0x3c6c6911	0.014429347
155	0x3d7f53f1	0.062335912
156	0xbd7b2d64	-0.061322585
157	0xbd425490	-0.047443926
158	0xbd9198d1	-0.071092255
159	0xbd13624a	-0.035982408
160	0x3d857e1a	0.065181926
161	0x3db3a509	0.08771712
162	0xbd82fa73	-0.06395426
163	0x3d362791	0.044471327
164	0xbd51b3aa	-0.05119673
165	0xbd04c41c	-0.032413587
166	0x3b067fba	0.0020522908
167	0x3dea359f	0.11436009
168	0xbd4a3676	-0.049368344
169	0x3d9cb386	0.07651429
170	0x3d53e1ce	0.051729016
171	0x3dc1e297	0.09467047
172	0xbcc3c9d7	-0.023899956
173	0x3de21fa2	0.1104119
174	0x3de07351	0.10959495
175	0xbd4884a2	-0.048954614
176	0xbc4737a1	-0.012159259
177	0x3dc64a0e	0.096820936
178	0xbd714eb6	-0.058912955
179	0x3dd7d2fe	0.105382904
180	0xbd268226	-0.040651463
181	0x3d9f261a	0.07770939
182	0xbe408c11	-0.18803431
183	0x3c199076	0.009372821
184	0xbd5f745d	-0.054554332
185	0x3d15c7a3	0.03656734
186	0x3b4a464b	0.0030864652
187	0x3da8d061	0.0824287
188	0x3d52b7fc	0.051444992
189	0x3ca345e1	0.019930782
190	0x3d34ea45	0.04416873
191	0x3dbd4ce6	0.09243183
192	0xbdac8274	-0.084233195
193	0xbd65d4ee	-0.05611127
194	0xbc1031f2	-0.00880097
195	0x3c3be64c	0.011468481
196	0xbc48e0ef	-0.01226066
197	0xbd66962e	-0.056295566
198	0xbcb62dea	-0.02223869
199	0xbd918e03	-0.07107165
200	0xbd2e1ab0	-0.04250592
201	0xbd81e892	-0.063431874
202	0x3d1f2a86	0.038858913
203	0x3d740bc4	0.059581533
204	0x3d92028d	0.07129393
205	0x3d79b771	0.06096596
206	0x3d661b6b	0.05617849
207	0x3d7920eb	0.06082241
208	0xbdba089a	-0.09083672
209	0xbd011582	-0.031514652
210	0xbd64447e	-0.05572938
211	0xbddd1204	-0.10794452
212	0x3dc9daf1	0.09856213
213	0x3dbe66c4	0.09296945
214	0xbdb20505	-0.08692364
215	0x3da11f63	0.07867315
216	0x3d6ff915	0.058587153
217	0x3d9620d3	0.073304795
218	0x3d1cd8e4	0.03829278
219	0xbd8dde9a	-0.069272235
220	0x3cd14577	0.025545819
221	0xbda2a641	-0.07941867
222	0xbb954608	-0.0045554675
223	0xbd1d472c	-0.038397953
224	0xbcc3c49a	-0.023897458
225	0xbc950503	-0.018190866
226	0x3c965204	0.018349655
227	0x3d8f2c80	0.069909096
228	0x3cea4a47	0.028599871
229	0xbdb50e23	-0.08840587
230	0x3dcc2cbb	0.09969469
231	0x3cf29f00	0.029616833
232	0x3d869e87	0.065732054
233	0xbd5f8113	-0.054566454
234	0xbddd8a7d	-0.1081743
235	0xbcf05d3c	-0.029341333
236	0xbc0f490c	-0.008745443
237	0xbd2b19c3	-0.041772615
238	0x3d827d2b	0.0637153
239	0x3bdfd05e	0.006830259
240	0xbdd306ea	-0.10304053
241	0x3bd2f049	0.0064373356
242	0xba80dcec	-0.0009831465
243	0xbd85baa7	-0.06529742
244	0x3b4d8bbc	0.0031363806
245	0x3e129d26	0.1431776
246	0xbe0ee4bf	-0.13954447
247	0x3c43587c	0.011922952
248	0x3d154741	0.036444906
249	0x3d5500a2	0.052002557
250	0x3cb39498	0.021921441
251	0x3db7d202	0.08975603
252	0xbc3a8e7c	-0.01138651
253	0x3d33c97b	0.04389332
254	0xbd6eebe6	-0.05833044
255	0xbc85814c	-0.016297005

sequential_5/conv2d_23/Conv2D f4 [128, 3, 3, 64]
0	0xbd695353	-0.05696423
1	0xbcb0dd42	-0.021589879
2	0xbd83e6ad	-0.06440482
3	0xbdd9a3ad	-0.10626922
4	0x3d8836d3	0.06651082
5	0x3d7533a4	0.0598637
6	0x3d1456a1	0.03621543
7	0xbdcdae44	-0.10043004
8	0xbd3de492	-0.04636056
9	0x3d7607a9	0.0600659
10	0x3c4519bc	0.012030061
11	0x3ca510e0	0.020149648
12	0x3d631f3c	0.05544971
13	0xbdea2a6a	-0.11433871
14	0x3d12ef30	0.03587264
15	0xbc28d937	-0.010305694
16	0xbc92ebee	-0.017934766
17	0x3c33a8cb	0.010965536
18	0xbdda867c	-0.10670182
19	0xbda403d2	-0.08008541
20	0xbd5a1622	-0.053243764
21	0xbd45e266	-0.048311614
22	0xbd4249c8	-0.047433645
23	0x3bb552b9	0.005533543
24	0xbdccaa82	-0.09993459
25	0x3d072f93	0.033004355
26	0xbcda7674	-0.026667811
27	0xbc3111bf	-0.010807454
28	0xbde15ddc	-0.110042304
29	0x3c2579f8	0.01009988
30	0xbc0a4022	-0.008438142
31	0x3b3a1fc3	0.002840028
32	0xbcc3d10f	-0.023903398
33	0xbdad2465	-0.08454207
34	0x3c93cfa8	0.018043354
35	0x3d008ded	0.03138535
36	0xbc2f0c9c	-0.010684159
37	0xbca43b84	-0.02004791
38	0xbd193c30	-0.037410915
39	0x3bf2fd8f	0.0074154804
40	0x3bfa8e69	0.007646371
41	0xbd10226f	-0.03518909
42	0xbd9c954d	-0.07645664
43	0xbdbad155	-0.09121958
44	0xbd011297	-0.03151187
45	0x3d3fe25e	0.04684674
46	0xbc1618bf	-0.009161173
47	0x3d15a9b3	0.03653879
48	0x3c310a04	0.010805611
49	0xbd6b9141	-0.05751157
50	0xbd94cfac	-0.07266173
51	0xbd149756	-0.036277138
52	0xbcb10d0f	-0.021612672
53	0xbc3cad75	-0.011515965
54	0xbd28e997	-0.041238394
55	0x3b8cf2cd	0.004301405
56	0x3cbe193c	0.023205392
57	0xbdbb2bb3	-0.09139194
58	0xbce24b03	-0.027623659
59	0x3bfa9207	0.0076468023
60	0x3cf00d99	0.029303359
61	0xbaeafa78	-0.0017927429
62	0x3d9d5678	0.07682508
63	0xbc2666be	-0.010156332
64	0x3df26011	0.118347295
65	0x3ce295be	0.027659293
66	0x3ca01650	0.01954189
67	0xbd266044	-0.04061915
68	0x3c818035	0.015808204
69	0xbd869a29	-0.065723725
70	0xbd9946bb	-0.07484194
71	0xbd35e011	-0.04440314
72	0x3da984ba	0.08277269
73	0xbbb9f2db	-0.0056747026
74	0xbd47f2ee	-0.04881566
75	0xbc32ff2c	-0.0109250955
76	0xbcc2fdc2	-0.023802642
77	0xbe2fdefb	-0.17174904
78	0x3d887b1e	0.06664108
79	0xbb9a7e6f	-0.004714779
80	0xbd080c9a	-0.033215143
81	0xbd2ad25d	-0.041704524
82	0x3b254125	0.002521583
83	0x3dc43da0	0.095820665
84	0xbdb9bb92	-0.09068979
85	0xbd07ae0d	-0.033124972
86	0xbd0dfbb9	-0.03466389
87	0xbd9b05a1	-0.07569433
88	0x3d445733	0.047934722
89	0x3d44f5c9	0.04808596
90	0xbdb6f8c4	-0.08934167
91	0xbd1bd0db	-0.038040977
92	0x3d962381	0.073309906
93	0xbd36038b	-0.044436973
94	0xbcbdd598	-0.023173138
95	0x3cb58403	0.022157675
96	0x3cc79c06	0.02436639
97	0x3d1572c3	0.0364864
98	0xbd90f4d1	-0.07077945
99	0xbcb538d6	-0.022121828
100	0x3d0beddc	0.034162387
101	0x3da2efb0	0.07955873
102	0xbdfa1427	-0.12210875
103	0xbd2bdbaa	-0.041957535
104	0xbc68cb1a	-0.014208579
105	0x3dbf22d5	0.093328156
106	0xbcf4eb20	-0.029897273
107	0x3ddcc77c	0.10780236
108	0x3cd69a20	0.02619654
109	0xbde05a0d	-0.10954676
110	0xbd548029	-0.051880036
111	0xbd2b3909	-0.04180244
112	0x3cf096d2	0.029368792
113	0x3db63275	0.08896343
114	0x3c59803c	0.013275202
115	0x3c45bb6c	0.012068611
116	0xbcda4c74	-0.026647784
117	0x3d9b72b9	0.07590241
118	0x3ca07413	0.019586599
119	0x3d7fa5eb	0.06241409
120	0x3cdcb09a	0.026939679
121	0xbcaaa04d	-0.02082839
122	0x3ce1c7d4	0.027561106
123	0xbda77ee6	-0.08178501
124	0xbdd19782	-0.10233976
125	0xbc39295e	-0.011301367
126	0xbde67db1	-0.112544425
127	0x3cf7b41c	0.03023725
128	0xbc416a40	-0.011805117
129	0xbd21facc	-0.03954582
130	0xbd1577da	-0.036491252
131	0xbcfcc1be	-0.030854102
132	0xbd349a9f	-0.04409277
133	0xbd225b68	-0.039637953
134	0xbd45a00b	-0.048248332
135	0xbd1a89c7	-0.03772905
136	0xbcc7f4a0	-0.024408638
137	0xbbd4aa02	-0.006489993
138	0xbd0f02bb	-0.034914713
139	0xbcfcf03d	-0.030876273
140	0xbd77eb7e	-0.060527317
141	0xbd9d098d	-0.07667837
142	0x3c419d7e	0.011817334
143	0x3c4521d9	0.012031996
144	0xbd1b0249	-0.037843976
145	0xbd03e34c	-0.03219919
146	0x3d28da52	0.04122383
147	0x3d455fc8	0.048187047
148	0x3d1dcfeb	0.038528364
149	0x3dbf4f1b	0.0934126
150	0x3cb7da07	0.02244283
151	0xbcb9a109	-0.022659795
152	0x3d711382	0.058856495
153	0xbaab87ca	-0.0013086733
154	0xbdc3f3a0	-0.09567952
155	0xbd078d94	-0.033094004
156	0x3a7858de	0.00094736915
157	0xbd4f6b43	-0.050639402
158	0xbc6118c5	-0.013738816
159	0x3cf7205a	0.030166794
160	0xbb625075	-0.003453282
161	0xbc990a75	-0.018681744
162	0xbc762208	-0.015022762
163	0x3cfc6b86	0.03081299
164	0x3ccbd37e	0.02488112
165	0xbd229c9e	-0.039700143
166	0x3d1875d8	0.03722176
167	0xbd5bbbb8	-0.05364582
168	0xbd76403b	-0.06011985
169	0xbc587f3e	-0.013213931
170	0xbc5cf698	-0.013486527
171	0x3d03e928	0.032204777
172	0xbd51dcf3	-0.051236104
173	0xbdaa1efb	-0.0830669
174	0x3cedb203	0.029015547
175	0xbd9bdd29	-0.07610542
176	0xbba7188f	-0.005099363
177	0xbbae10cd	-0.0053120614
178	0x3cb45678	0.022013888
179	0x3c2fed27	0.010737694
180	0x3d7c9647	0.061666753
181	0x3c45ebb6	0.012080124
182	0xbc2dd7c2	-0.010610523
183	0x3d0e2072	0.03469891
184	0xbd98d51f	-0.074625246
185	0x389b6df4	7.411456e-05
186	0xbd175026	-0.03694167
187	0xbda6b875	-0.08140651
188	0xbe01e3c5	-0.12684543
189	0xbdad9c7e	-0.08477114
190	0xbc2e8c39	-0.010653549
191	0xbd9ec9db	-0.077533446
192	0xbd4ccad5	-0.049998123
193	0xbc4419d3	-0.011969048
194	0xbe117e1c	-0.14208263
195	0xbd951e5f	-0.072811835
196	0x3d382d67	0.044965174
197	0xbc4af03a	-0.012386376
198	0x3d4b3036	0.049606524
199	0xbdcead4a	-0.10091646
200	0xbe0bf132	-0.13666227
201	0xbc810bc1	-0.015752675
202	0xbd5bba10	-0.05364424
203	0xbdb6c5bf	-0.08924436
204	0xbcbda6d1	-0.023150833
205	0xbd82400f	-0.063598745
206	0xbca4ddd5	-0.020125309
207	0xbd1cf9c5	-0.038324136
208	0xbd964c27	-0.07338744
209	0xbc80aa39	-0.015706168
210	0xbda9e09d	-0.08294795
211	0xbdbcd33c	-0.09219977
212	0x3c8b8d0d	0.017035032
213	0x3adc20ac	0.0016794405
214	0xbd55f018	-0.052230924
215	0xbca82d8a	-0.020529527
216	0xbd8520c2	-0.06500389
217	0xbddb440d	-0.10706339
218	0xbc97b10a	-0.018517036
219	0x3cc62fdd	0.024192745
220	0xbda0ea12	-0.07857145
221	0xbde13f8f	-0.10998451
222	0xbe091ad7	-0.13389145
223	0xbd9e957a	-0.07743354
224	0xbd35a509	-0.044346843
225	0xbd09d437	-0.03364965
226	0x3ccc9bf5	0.02497671
227	0x3d224da1	0.039624814
228	0xbd8d1d50	-0.068903565
229	0xbd85780e	-0.06517039
230	0xbc551ea7	-0.013007796
231	0x3d39ea6d	0.04538958
232	0xbd664564	-0.05621852
233	0xbdd5f114	-0.10446373
234	0xbd29e956	-0.041482292
235	0xbd051f28	-0.032500416
236	0xbd895230	-0.06705129
237	0xbca22d27	-0.019796921
238	0xbcfb6d97	-0.030691905
239	0xbd5d5678	-0.05403754
240	0xbdcdfae2	-0.10057618
241	0xbdde062b	-0.1084102
242	0xbd765c5d	-0.06014668
243	0xbda6b3d8	-0.08139771
244	0x3ce1c478	0.027559504
245	0xbe1ccdba	-0.15312853
246	0xbd890717	-0.066908054
247	0xbdaa48ce	-0.08314668
248	0xbd691699	-0.056906316
249	0xbd5bcac7	-0.05366018
250	0x3a91b30f	0.0011115986
251	0xbc43c2c1	-0.011948288
252	0x3c5245c9	0.012834021
253	0x3ca84142	0.02053893
254	0x3d13dde1	0.036100272
255	0x3d608cb4	0.054821685
